…
2025-04-18 10:51:12,536 - ERROR: Creating embeddings: 100%|##########| 100000/100000 [31:17<00:00, 53.25it/s]
2025-04-18 10:51:12,536 - INFO: Successfully created 100000 document embeddings
2025-04-18 10:51:12,620 - INFO: X shape: (100000, 106), y shape: (100000,)
2025-04-18 10:51:12,622 - INFO: Splitting data into train/test sets
2025-04-18 10:51:12,648 - INFO: Train set: 80000 samples, Test set: 20000 samples
2025-04-18 10:51:12,652 - INFO: Initializing predictor model
2025-04-18 10:51:12,656 - INFO: Predictor input dimension: 106
2025-04-18 10:51:12,656 - INFO: Model architecture: EnhancedUpvotePredictor(
  (attention): Sequential(
    (0): Linear(in_features=106, out_features=64, bias=True)
    (1): Tanh()
    (2): Linear(in_features=64, out_features=106, bias=True)
    (3): Softmax(dim=1)
  )
  (main_network): Sequential(
    (0): Linear(in_features=106, out_features=512, bias=True)
    (1): BatchNorm1d(512, eps=1e-05, momentum=0.1, affine=True, track_running_stats=True)
    (2): LeakyReLU(negative_slope=0.2)
    (3): Dropout(p=0.5, inplace=False)
    (4): Linear(in_features=512, out_features=384, bias=True)
    (5): BatchNorm1d(384, eps=1e-05, momentum=0.1, affine=True, track_running_stats=True)
    (6): LeakyReLU(negative_slope=0.2)
    (7): Dropout(p=0.5, inplace=False)
    (8): Linear(in_features=384, out_features=256, bias=True)
    (9): BatchNorm1d(256, eps=1e-05, momentum=0.1, affine=True, track_running_stats=True)
    (10): LeakyReLU(negative_slope=0.2)
    (11): Dropout(p=0.45, inplace=False)
    (12): Linear(in_features=256, out_features=128, bias=True)
    (13): BatchNorm1d(128, eps=1e-05, momentum=0.1, affine=True, track_running_stats=True)
    (14): LeakyReLU(negative_slope=0.2)
    (15): Dropout(p=0.4, inplace=False)
    (16): Linear(in_features=128, out_features=64, bias=True)
    (17): BatchNorm1d(64, eps=1e-05, momentum=0.1, affine=True, track_running_stats=True)
    (18): LeakyReLU(negative_slope=0.2)
    (19): Dropout(p=0.3, inplace=False)
    (20): Linear(in_features=64, out_features=1, bias=True)
    (21): ReLU()
  )
)
2025-04-18 10:51:13,168 - INFO: Starting Upvote Predictor Training Loop
2025-04-18 10:51:13,168 - ERROR: Training epochs:   0%|          | 0/50 [00:00<?, ?it/s]
2025-04-18 10:51:17,886 - INFO: Epoch 1/50
2025-04-18 10:51:17,886 - INFO: Train Loss: 0.3658, Train RMSE: 74.84
2025-04-18 10:51:17,886 - INFO: Test Loss: 0.3650, Test RMSE: 74.84
…
